MLP/tetris_dqn_model.pth (torch, 82829 bytes, 20 tensors)

layer.0.weight f4 [64, 4]
0	0xbd50fd4e	-0.05102282
1	0x3ee71ce2	0.45139223
2	0xbdfa7ff9	-0.1223144
3	0xbe634027	-0.22192441
4	0x3e9782a6	0.29591864
5	0x3ebc076b	0.3672441
6	0xbeab1584	-0.33414853
7	0xbe5a9b8f	-0.21348403
8	0xbe8cd570	-0.2750659
9	0xbef4575c	-0.477229
10	0xbec277b3	-0.37981948
11	0xbe3d1f39	-0.18468942
12	0x3e22e737	0.15908514
13	0xbea355bb	-0.31901345
14	0xbed6d322	-0.41957957
15	0x3e112fae	0.14178345
16	0x3ee4d1f3	0.4469143
17	0xbe1800e6	-0.14844093
18	0xbe95076a	-0.2910722
19	0xbe2c681e	-0.16836593
20	0xbe95ebac	-0.29281366
21	0x3e243ef4	0.1603964
22	0xbedeaba1	-0.43490317
23	0x3eb363c7	0.35037062
24	0xbed09466	-0.4073822
25	0x3ea9a5db	0.3313435
26	0x3e83d5ef	0.25749156
27	0xbec38ecc	-0.38194883
28	0x3ef7f18f	0.48426482
29	0x3ef479e0	0.47749233
30	0xbeb1e214	-0.34742796
31	0xbeb9745b	-0.36221585
32	0x3e2ad909	0.16684355
33	0xbedb20cf	-0.42798468
34	0x3ea04bdb	0.31307873
35	0x3ee70464	0.45120537
36	0x3e314490	0.17311311
37	0x3e54b762	0.2077308
38	0xbe1da15c	-0.15393585
39	0xbec611c3	-0.38685426
40	0xbe1656d6	-0.14681563
41	0xbecbc3f9	-0.39797953
42	0x3e53baae	0.20676681
43	0xbefafb59	-0.49019888
44	0x3d8b5f99	0.06805343
45	0xbeb72789	-0.3577235
46	0x3cbf4e25	0.023352692
47	0x3e43d096	0.19122538
48	0xbeaeb098	-0.34119105
49	0x3deff290	0.11716187
50	0xbdef0d20	-0.11672425
51	0x3db2087c	0.086930245
52	0x3d754de9	0.059888754
53	0x3dd95718	0.10612315
54	0xbdbd7947	-0.092516474
55	0x3f0c47dd	0.54797155
56	0x3e1d8a39	0.15384759
57	0x3ec342dc	0.38136947
58	0x3e2c07bb	0.16799824
59	0x3ea1ab4c	0.31576002
60	0xbebd0e4d	-0.36924973
61	0x3e83624b	0.2566093
62	0xbdd75262	-0.1051376
63	0x3eeec499	0.46634367
64	0xbdde2e67	-0.10848694
65	0xbe96e954	-0.2947489
66	0x3ec35d9d	0.3815736
67	0x3e3be526	0.18349132
68	0xbc29117b	-0.010319109
69	0xbd13560f	-0.035970744
70	0x3d6d6c72	0.05796475
71	0x3dacc5f1	0.08436192
72	0xbe938320	-0.28810978
73	0x3eae79d4	0.34077322
74	0xbea63a51	-0.32466367
75	0xbe80083f	-0.2500629
76	0x3ea9bfe7	0.33154222
77	0x3dddd747	0.108320765
78	0xbecebb40	-0.40377235
79	0xbec6281f	-0.38702485
80	0xbe17ee66	-0.14837036
81	0x3df313a0	0.118689775
82	0x3d595413	0.053058695
83	0x3ebbaf59	0.36657217
84	0xbe9e96cd	-0.30974427
85	0x3eda974c	0.42693555
86	0x3de2c93f	0.11073541
87	0xbd65b367	-0.056079295
88	0xbe6d345c	-0.23164505
89	0xbdfee4e9	-0.12446005
90	0xbeab4fac	-0.33459222
91	0xbe4dd406	-0.20100412
92	0x3dc13dcd	0.09435616
93	0xbdf6c26f	-0.12048804
94	0x3ee70124	0.45118058
95	0xbe9c8bfa	-0.30575544
96	0xbef046cc	-0.46929014
97	0x3e48099f	0.1953492
98	0x3ecb5745	0.3971502
99	0xbea8f2cc	-0.3299774
100	0xbdb9b761	-0.0906818
101	0xbe97f21c	-0.29676902
102	0x3d851338	0.06497806
103	0xbe11636a	-0.1419808
104	0xbe707bf8	-0.2348479
105	0xbcfba141	-0.03071654
106	0xbd98c7a2	-0.07459952
107	0xbea5f253	-0.3241144
108	0x3ee9e732	0.456842
109	0x3d5f5aff	0.05453014
110	0xbe547656	-0.20748267
111	0xbeab132e	-0.3341307
112	0xbd09af79	-0.03361461
113	0xbe103e1a	-0.1408619
114	0xbe8c5387	-0.27407476
115	0xbdde108f	-0.10843002
116	0xbec36693	-0.38164195
117	0x3c57a017	0.013160727
118	0x3ee45b40	0.44600868
119	0x3d68e332	0.056857295
120	0x3dfa63c9	0.12226064
121	0x3d2cae22	0.042158253
122	0x3e569cfc	0.20958322
123	0x3f0528be	0.5201529
124	0x3baa4409	0.0051960987
125	0xbe994cdc	-0.29941452
126	0x3e97e770	0.2966876
127	0xbb041a48	-0.0020157266
128	0x3e14e95e	0.14542148
129	0x3e2b9dee	0.16759464
130	0xbc8989e1	-0.016789379
131	0x3e086358	0.13319147
132	0x3ecf6d34	0.40513003
133	0x3ed81c96	0.4220931
134	0x3ee5a6dd	0.4485387
135	0x3ef72ee2	0.48277956
136	0xbdff5729	-0.12467796
137	0xbeef8079	-0.46777704
138	0x3eb99bc8	0.36251664
139	0xbe887bea	-0.2665704
140	0xbc827979	-0.015927063
141	0x3d21c2bf	0.039492365
142	0x3e853c00	0.2602234
143	0x3ed06005	0.40698257
144	0xbe616c1f	-0.22013901
145	0xbdbd8aee	-0.09255014
146	0x3d90acea	0.07064231
147	0x3ed654d9	0.4186161
148	0x3ee34e21	0.44395545
149	0x3e9efb61	0.31051162
150	0xbeeba032	-0.46020657
151	0xbebc538d	-0.36782494
152	0x3e845343	0.25844774
153	0xbecfd5d6	-0.4059283
154	0x3eddde18	0.43333507
155	0xbeff764e	-0.49894947
156	0x3d9668ea	0.073442295
157	0x3e71ed2a	0.23625627
158	0xbe7dfed2	-0.24804237
159	0x3e4a9b2a	0.19785753
160	0x3e9773ca	0.29580528
161	0x3d7ef933	0.062249374
162	0x3e21af7b	0.15789597
163	0x3eaf438a	0.34231216
164	0x3d4668dd	0.04843985
165	0xbe9152b6	-0.28383416
166	0x3eca79db	0.39546093
167	0x3dec18f5	0.11528198
168	0x3ee1c7b7	0.44097683
169	0xbeb81819	-0.35955885
170	0x3e1b52f6	0.15168366
171	0xbd33863d	-0.04382919
172	0x3e9826fc	0.29717243
173	0x3ecf021b	0.40431294
174	0x3e702ec5	0.23455341
175	0xbe6820b8	-0.22668731
176	0xbe001619	-0.1250843
177	0x3ef375c6	0.47550792
178	0xbe8504c7	-0.25980207
179	0x3e26a05b	0.16272108
180	0xbe1b9fe9	-0.1519772
181	0xbe1c2a10	-0.1525042
182	0xbedd0efb	-0.43175492
183	0xbec54207	-0.38526937
184	0xbcbbc3c6	-0.0229205
185	0x3e9008a6	0.28131598
186	0xbdbaf604	-0.09128955
187	0xbd051589	-0.03249124
188	0x3df86a4b	0.12129649
189	0xbe1595dc	-0.14607948
190	0x3e9eafd9	0.30993536
191	0x3e023847	0.1271678
192	0xbe9d2fd6	-0.30700558
193	0xbe34df22	-0.17663243
194	0xbd2dbc5f	-0.042415973
195	0x3eb9543a	0.36197072
196	0xbdeadc70	-0.11467826
197	0x3d77ac9b	0.060467344
198	0x3e0e4775	0.13894446
199	0xbe24fbd1	-0.16111685
200	0xbe8e6bd6	-0.27816647
201	0x3ed0636b	0.4070085
202	0x3e26499c	0.16239017
203	0xbe7eb45c	-0.24873489
204	0xbe78ba25	-0.24289759
205	0xbe0c0ce5	-0.13676794
206	0xbeda4d39	-0.4263704
207	0x3cd918b8	0.026501045
208	0x3ece1146	0.40247554
209	0x3e0cce77	0.13750635
210	0x3e5e3b25	0.2170225
211	0x3dd2643a	0.10273023
212	0x3e9309dc	0.2871846
213	0x3d8b3d39	0.06798787
214	0x3e804e9d	0.25059977
215	0x3d10e158	0.035371155
216	0xbe1062fe	-0.14100263
217	0x3e95e136	0.29273385
218	0x3e9b3adc	0.30318344
219	0x3e74de20	0.23912859
220	0xbed22c52	-0.4104944
221	0x3edbb00c	0.4290775
222	0x3ea476ca	0.3212188
223	0x3e19c8a8	0.1501795
224	0xbeb989c3	-0.36237916
225	0xbdd312d7	-0.10306328
226	0xbd083c0e	-0.033260398
227	0x3ea3dd26	0.3200466
228	0xbe8c483b	-0.27398857
229	0xbed0da8a	-0.40791732
230	0xbeb8314e	-0.35975116
231	0xbe55a896	-0.20865092
232	0xbed3e3da	-0.41384774
233	0xbeedb411	-0.46426442
234	0x3c8f927b	0.017525902
235	0x3ef7c5a0	0.48392963
236	0xbcb801ec	-0.022461854
237	0x3cde5fbf	0.027145265
238	0xbd849e11	-0.06475461
239	0xbea56d1f	-0.32309815
240	0xbe5ce067	-0.21569978
241	0xbd43c60a	-0.047796287
242	0x3d8b9d72	0.0681714
243	0xbecf6d92	-0.40513283
244	0xbe60d843	-0.21957497
245	0xbeb9d97b	-0.36298737
246	0x3ed04127	0.40674707
247	0x3ee7b7e7	0.45257494
248	0x3dcda4de	0.100412115
249	0x3d0f1976	0.03493639
250	0xbbac7856	-0.0052633686
251	0x3d257f46	0.04040458
252	0x3eb78fe8	0.3585198
253	0xbea1fdfd	-0.3163909
254	0xbed8e924	-0.42365372
255	0x3d960e4a	0.07326944

layer.0.bias f4 [64]
0	0xbe924234	-0.28566134
1	0x3f1f240e	0.6216439
2	0x3ed6aaf7	0.4192731
3	0x3e22f91c	0.1591534
4	0x3f08cdb9	0.5343891
5	0x3f0e823d	0.5566748
6	0x3f4d61b1	0.8022719
7	0x3e4f2559	0.20229091
8	0x3f425132	0.75905144
9	0x3efd3744	0.49456227
10	0x3ed922ca	0.42409354
11	0x3f21c096	0.6318449
12	0xbe0e455e	-0.13893649
13	0x3f54af19	0.8307968
14	0x3d2ad0f6	0.041703187
15	0xbf00101a	-0.5002457
16	0xbf815a88	-1.0105753
17	0x3f78c71f	0.97178835
18	0xbdcf9f9e	-0.101378664
19	0xbe7b4226	-0.24536952
20	0x3ed83ed5	0.42235437
21	0xbf26c97a	-0.6515118
22	0x3eb321b8	0.34986663
23	0x3f42b61f	0.76059145
24	0xbf43eb22	-0.7653066
25	0x3e8d08f9	0.27545908
26	0xba1d72c2	-0.0006006175
27	0xbed70d3c	-0.42002285
28	0xbdf19390	-0.117957234
29	0xbe7990c3	-0.24371628
30	0xbf3a3902	-0.72743237
31	0xbcd8576a	-0.02640887
32	0x3f2df4bb	0.67951554
33	0x3e5fc6dd	0.21853204
34	0xbeea746c	-0.45791948
35	0x3f652483	0.8950884
36	0x3f46777d	0.77526075
37	0xbea0ffa7	-0.31445047
38	0xbf352658	-0.7076163
39	0x3ee247d5	0.44195428
40	0xbf2bdd6e	-0.6713475
41	0x3f88db16	1.069186
42	0x3f815e41	1.0106889
43	0xbd3ad0e4	-0.04560937
44	0xbe1ab9e6	-0.15109977
45	0xbe8f06d9	-0.27934912
46	0x3e16ee2e	0.14739296
47	0xbecdefdd	-0.40222064
48	0x3ebcff40	0.3691349
49	0x3e638048	0.22216904
50	0xbf264ad1	-0.6495791
51	0x3ed2aabe	0.4114589
52	0x3f14a558	0.58064795
53	0x3e693c0c	0.22776812
54	0xbd59702d	-0.053085495
55	0x3f0ec858	0.5577445
56	0xbf63da1a	-0.8900467
57	0xbdf400ad	-0.119141914
58	0xbf1dd527	-0.6165337
59	0xbeacbddc	-0.337386
60	0x3f65a905	0.8971103
61	0xbf678454	-0.9043629
62	0x3f01e2e6	0.50736845
63	0x3e923040	0.28552437

layer.2.weight f4 [64, 64]
0	0xbde429a3	-0.11140754
1	0xbde34ba3	-0.11098411
2	0xbd616943	-0.055032026
3	0x3df9f29d	0.12204478
4	0xbdb65c76	-0.08904354
5	0xbd9cd335	-0.07657472
6	0x3dfd5c00	0.12371063
7	0x3dbc2ede	0.09188627
8	0x3d16233d	0.0366547
9	0xbde6359d	-0.11240695
10	0x3d8040a5	0.0626233
11	0x3d5ab24e	0.0533927
12	0xbdac20b7	-0.08404677
13	0x3dd3f506	0.10349469
14	0xbbf13757	-0.0073613334
15	0xbdd5a47a	-0.10431762
16	0xbdb4fa98	-0.088368595
17	0x3dcd651a	0.10029049
18	0xbcf53c00	-0.029935837
19	0x3cfae1a1	0.030625166
20	0xbc4566f9	-0.012048476
21	0xbcea356e	-0.02858993
22	0xbc5b9a3f	-0.013403474
23	0x3deca528	0.115549386
24	0xbd0d8409	-0.034549747
25	0xbe6c7df2	-0.2309492
26	0x3d9c4277	0.07629865
27	0xbc90b84a	-0.017666
28	0xbc96efb2	-0.018424843
29	0x3da62d33	0.0811409
30	0xbd4b7b58	-0.049678177
31	0x3d8926fd	0.066968895
32	0xbdd47c2f	-0.10375249
33	0x3df4fd51	0.11962379
34	0xbd340ee2	-0.043959506
35	0xbdc5bd28	-0.09655219
36	0xbd587620	-0.052847028
37	0x3ddc0bb1	0.107444175
38	0xbb892a6c	-0.0041859653
39	0x3ba12ada	0.0049184384
40	0x3cb17d91	0.02166632
41	0x3cb44aad	0.022008264
42	0x3cacc6d3	0.0210909
43	0x3d0bdb19	0.034144495
44	0xbd19daee	-0.037562303
45	0x3c8d97bd	0.017284269
46	0x3de5ce5f	0.11221003
47	0x3dc703fb	0.09717556
48	0xbbb2d27d	-0.005457221
49	0x3dfc8cab	0.12331518
50	0x3cd861fe	0.026413914
51	0xbd4cf3d2	-0.050037213
52	0xbdbc0c76	-0.09182064
53	0x3d2ff92c	0.04296224
54	0x3debc781	0.11512662
55	0xbde1130c	-0.10989961
56	0xbec49b7e	-0.3839988
57	0xbd406cf1	-0.046978895
58	0xbcd2d522	-0.025736395
59	0x3db2438a	0.08704288
60	0xbd5ad779	-0.053428147
61	0x3ca3e688	0.020007387
62	0x3bff403b	0.0077896393
63	0xbd384064	-0.044983283
64	0x3dbab61d	0.091167666
65	0xbd444a19	-0.047922228
66	0xbdf5d773	-0.12003984
67	0x3dcfcea8	0.101468384
68	0xbd309d5c	-0.04311882
69	0x3d8e7dd1	0.06957591
70	0x3df090ac	0.11746344
71	0xbdf8c183	-0.121462844
72	0xbd42d509	-0.047566447
73	0xbdb8899c	-0.09010622
74	0xbd3380c6	-0.04382398
75	0x3d19e6ec	0.03757374
76	0xbd8344db	-0.064096175
77	0xbc707c58	-0.014678083
78	0x3dd36f0b	0.10323914
79	0x3d181f8d	0.037139464
80	0xbb072c23	-0.0020625673
81	0xbd0c12cf	-0.034197625
82	0x3d50bf6a	0.050963797
83	0xbcfeca9d	-0.031102473
84	0x3e05e110	0.13074136
85	0xbbc7ca18	-0.0060970895
86	0xbd2527eb	-0.040321272
87	0xba7677e8	-0.00094020227
88	0x3bee9f75	0.0072821924
89	0xbe10f599	-0.14156188
90	0x3d1a6c86	0.037701152
91	0xbc610a4f	-0.013735368
92	0xbd6a3c50	-0.057186425
93	0x3dd7e681	0.10542012
94	0xbd301245	-0.042986173
95	0xbdb9b07d	-0.090668656
96	0xbe0f0029	-0.13964905
97	0xbd12d485	-0.035847206
98	0x3d977c59	0.07396764
99	0xbdd18762	-0.102309
100	0xbd478a35	-0.04871579
101	0xbcd8cfe4	-0.026466317
102	0x3d4b10d5	0.0495766
103	0xbd90a85c	-0.07063362
104	0xbc2ab093	-0.010418075
105	0x3e02ac1e	0.1276097
106	0xbdc3874c	-0.0954729
107	0xbcc71fb4	-0.02430711
108	0xbc45b0fd	-0.012066123
109	0xbda08b31	-0.07839049
110	0xbd13f982	-0.03612662
111	0x3d74da8b	0.05977873
112	0xbdea2d84	-0.11434463
113	0x3d917903	0.07103159
114	0xbd52c5c0	-0.05145812
115	0x3d824323	0.063604616
116	0xbd4df80e	-0.05028539
117	0x3d517634	0.051138118
118	0x3d8cc7f7	0.06874078
119	0x3e030064	0.12793118
120	0xbe87a2f0	-0.264915
121	0x3dbbd5e0	0.09171653
122	0x3d827ac7	0.06371074
123	0x3d15dbde	0.036586635
124	0xbd9b9014	-0.0759584
125	0x3ce11b5d	0.027478868
126	0x3caba7ca	0.020954031
127	0x3db36f80	0.08761501
128	0x3b9296ca	0.004473542
129	0x3dbce780	0.092238426
130	0x3d9fe96b	0.07808193
131	0x3da18ab3	0.07887783
132	0x3d92060c	0.071300596
133	0x3dc3036e	0.095221385
134	0x3d239bf2	0.039943643
135	0xbd7e334d	-0.062060643
136	0xbd6c7499	-0.057728384
137	0x3d937c25	0.07201413
138	0x3da0db77	0.078543596
139	0x3e111d7f	0.14171408
140	0xbd732834	-0.059364513
141	0xbd4fe17c	-0.050752148
142	0x3d3ae516	0.04562863
143	0xbdfe90b6	-0.12429945
144	0x3cdd58c2	0.027019862
145	0xbc52784e	-0.012846066
146	0xbc849f49	-0.016189234
147	0x3b91b5ca	0.00444672
148	0xbdcdf045	-0.100555934
149	0x3cc3101f	0.023811398
150	0x3d846bd9	0.06465883
151	0x3dee6a09	0.11641318
152	0xbdda20a6	-0.106507584
153	0xbddd95f2	-0.108196154
154	0xbd2bd0a1	-0.04194701
155	0xbc36579c	-0.011129286
156	0xbc2ae7c6	-0.010431236
157	0x3ccdc763	0.025119489
158	0x3cd53fdb	0.026031425
159	0x3db63006	0.088958785
160	0xbd723278	-0.059130162
161	0xbd2319a8	-0.03981939
162	0x3dacdd52	0.08440651
163	0x3de28dc1	0.11062194
164	0x3d8f9c1d	0.07012198
165	0x3ccfa87e	0.025348898
166	0x3dc93214	0.09824005
167	0x3d9ec40b	0.07752236
168	0x3d675a39	0.056482527
169	0x3dd47f15	0.103758015
170	0x3c91797c	0.017758124
171	0x3cd455a4	0.025919743
172	0xbd525b0e	-0.051356368
173	0xbdc7dd7c	-0.09759042
174	0x3d5b10d7	0.053482857
175	0x3a5d4ab8	0.0008441615
176	0x3dd7e005	0.10540775
177	0x3d0e635e	0.034762733
178	0xbd923fd5	-0.07141081
179	0xbd7c86ec	-0.06165211
180	0xbdb52f15	-0.08846871
181	0x3d442d1a	0.047894575
182	0xbd1664e9	-0.03671733
183	0x3ddcc836	0.10780375
184	0xbe8bf6e4	-0.273368
185	0xbdb920ca	-0.09039457
186	0x3d091a22	0.033472188
187	0xbd9dca59	-0.077046104
188	0x3da4ff9c	0.08056566
189	0x3ddfe779	0.10932822
190	0xbcc054db	-0.023477962
191	0xbc819e7d	-0.015822643
192	0x3d90300a	0.07040413
193	0x3db6b328	0.0892089
194	0x3e40cf27	0.18829022
195	0x3e12a4ca	0.14320675
196	0x3d246729	0.040137444
197	0x3e6b7da4	0.22997147
198	0xbddc8a65	-0.10768584
199	0x3e6a218a	0.22864357
200	0x3e0308a8	0.12796271
201	0x3e7e8ee3	0.24859194
202	0x3da2259c	0.0791733
203	0x3d7493c9	0.05971125
204	0x3c6521bf	0.0139850965
205	0x3d5d73ac	0.05406539
206	0xbccd9310	-0.025094539
207	0x3c8de118	0.017319247
208	0x3c45bf5a	0.012069548
209	0x3de02da7	0.109462075
210	0xbd8dd552	-0.06925453
211	0x3db1a24e	0.08673535
212	0xbc37aefa	-0.011211151
213	0xbd877aa5	-0.066151895
214	0x3ceeb08e	0.029136922
215	0xbbdb83f9	-0.006699082
216	0x3d83c237	0.06433528
217	0xbdf9d2d3	-0.12198415
218	0x3dc16290	0.094426274
219	0xbd4c500a	-0.04988102
220	0xbd76889a	-0.060188867
221	0x3da26c8b	0.07930859
222	0x3db1ad4b	0.08675631
223	0x3dc0546d	0.09391103
224	0xbda259b6	-0.07927267
225	0x3d889f78	0.06671041
226	0xbcba502a	-0.022743303
227	0x3dab9361	0.0837772
228	0x3d75f581	0.060048584
229	0xbd510b5e	-0.05103623
230	0xbd079921	-0.03310502
231	0x3da4c081	0.0804453
232	0xbddb6c90	-0.10714066
233	0xbdc58e41	-0.096462734
234	0x3c6f66a0	0.01461187
235	0x3d3be6a6	0.04587426
236	0x3d265c47	0.040615346
237	0x3dc67ced	0.096917965
238	0x3d415236	0.047197543
239	0xbd6fce82	-0.05854655
240	0x3d802787	0.06257539
241	0xbdc7ecab	-0.09761938
242	0xbda7ab2a	-0.08186944
243	0x3e39bc2a	0.18138185
244	0x3e03b7c0	0.12863064
245	0xbc655808	-0.013998039
246	0xbc6c0ee4	-0.014407847
247	0xbdc6fc4a	-0.09716089
248	0xbecb34f0	-0.39688826
249	0x3daf83fa	0.085700944
250	0x3d666616	0.0562497
251	0x3d0e860b	0.034795802
252	0x3df5d4a8	0.120034516
253	0xbd649989	-0.055810485
254	0xbd1c0d2d	-0.038098503
255	0x3d26d3e3	0.040729415

layer.2.bias f4 [64]
0	0xbd6f1c4a	-0.058376588
1	0x3d978569	0.07398493
2	0x3d957b33	0.07298889
3	0x3dfbedfb	0.123012505
4	0xbcc8f2b3	-0.02452979
5	0x3d3abf8a	0.045592822
6	0x3de21a96	0.11040227
7	0x3dac1970	0.08403289
8	0x3e052b35	0.13004763
9	0x3e7ebfa8	0.24877799
10	0x3d909a51	0.070606835
11	0x3e28a169	0.16467823
12	0x3d82056f	0.063486926
13	0x3ca9e193	0.020737445
14	0x3d31181c	0.043235883
15	0xbd25dbab	-0.040492695
16	0xbb90e90a	-0.0044223117
17	0x3f4bf3bc	0.79668784
18	0x3bf57bb2	0.0074915523
19	0xbc42fd3d	-0.011901197
20	0x3b600a5d	0.0034185864
21	0xbbee3b70	-0.007270269
22	0xbe28be9f	-0.16478966
23	0x3bf3881d	0.0074319975
24	0xbc15b8ec	-0.009138327
25	0xbe16f6d2	-0.14742592
26	0x3d1ada7d	0.037806023
27	0x3d4d07c5	0.050056238
28	0x3d1baf7b	0.038009148
29	0xbca9f316	-0.020745795
30	0x3d909386	0.07059388
31	0xbdef8e44	-0.11697057
32	0x3d6775dd	0.056508888
33	0x3defb35a	0.117041305
34	0xbd0d8ffa	-0.034561135
35	0xbcc3e015	-0.023910562
36	0xbdc97789	-0.09837253
37	0x3e07b0b7	0.13251005
38	0x39c90784	0.00038343307
39	0xbddae213	-0.106876515
40	0xbe1abc9c	-0.15111011
41	0xbde58e00	-0.11208725
42	0x3dee6b24	0.11641529
43	0x3daea8b6	0.08528273
44	0x3f49143b	0.78546494
45	0x3d8203bf	0.06348371
46	0x3d3326df	0.043738242
47	0xbc14f581	-0.009091736
48	0xbc73ebf8	-0.014887802
49	0x3dec51b4	0.11539021
50	0xbe4426f5	-0.19155486
51	0xbd07fdc3	-0.03320099
52	0x3db97f88	0.09057528
53	0x3e1774e5	0.14790685
54	0x3d4cae7a	0.04997108
55	0x3df4b940	0.11949396
56	0x3d804765	0.062636174
57	0xbdf05022	-0.11734034
58	0x3e005202	0.12531283
59	0xbd166aba	-0.036722876
60	0xbd2e8b9e	-0.042613618
61	0x3ce0a822	0.027423922
62	0xbcb54e99	-0.022132205
63	0x3d83be78	0.064328134

layer.4.weight f4 [1, 64]
0	0x3d04d5d5	0.03243049
1	0x3cec8c17	0.028875394
2	0x3df9e342	0.12201549
3	0x3df2b069	0.11850054
4	0xbc9b8f6e	-0.018989291
5	0x3dc009a7	0.09376841
6	0xbd986056	-0.074402496
7	0x3d9cf96c	0.07664761
8	0xbd95c469	-0.07312853
9	0x3dd76fee	0.10519396
10	0xbd919ab0	-0.071095824
11	0x3cece447	0.028917445
12	0xbe2e94f4	-0.17049009
13	0xbd90611a	-0.07049771
14	0xbb9b4d95	-0.004739473
15	0xbd53eeb6	-0.051741324
16	0x3da8d516	0.08243768
17	0x3f61ff50	0.882802
18	0x3d4b150e	0.049580626
19	0x3da8e2fd	0.082464196
20	0xbc6588bd	-0.014009652
21	0x3d4f980a	0.050682105
22	0xbdf99ff6	-0.12188713
23	0xb9823b2e	-0.00024839625
24	0xbe00096d	-0.12503596
25	0xbd5664da	-0.052342273
26	0xbd416755	-0.047217686
27	0x3d237fdf	0.03991687
28	0xbe122b37	-0.14274298
29	0xbd7f06df	-0.062262412
30	0x3dea3b62	0.114371076
31	0xbc9f7ac3	-0.019467717
32	0xbdd1fe16	-0.10253541
33	0xbdd9026c	-0.10596165
34	0x3b1431aa	0.002261261
35	0x3d89ef69	0.06735117
36	0x3c10b57a	0.00883233
37	0xbdde2202	-0.1084633
38	0xbdfba133	-0.12286606
39	0xbdbc40a5	-0.091920175
40	0xbdf59217	-0.11990755
41	0x3d280345	0.041018743
42	0xbd44cf40	-0.04804921
43	0x3ceb99ce	0.028759863
44	0x3f53c0fe	0.8271636
45	0x3d8ff5d2	0.070293084
46	0xbdb4388d	-0.08799849
47	0x3d0fa519	0.03506956
48	0xbd910308	-0.07080656
49	0x3d87bd3e	0.06627892
50	0xbd4760d7	-0.048676338
51	0xbdb320be	-0.087464795
52	0xbdaa2ed0	-0.0830971
53	0x3e004b83	0.12528805
54	0xbdf48248	-0.11938912
55	0x3dc51b9d	0.096244074
56	0xbd858129	-0.06518776
57	0xbb085e60	-0.0020808205
58	0xbdb783ac	-0.08960661
59	0x3cdce08f	0.026962547
60	0xbdeac376	-0.114630625
61	0xbd4d9803	-0.050193798
62	0xbde70b5d	-0.11281464
63	0x3d8afaeb	0.0678614

exp_avg f4 [64, 4]
0	0x00000000	0.0
1	0x00000000	0.0
2	0x00000000	0.0
3	0x00000000	0.0
4	0x00000000	0.0
5	0x00000000	0.0
6	0x00000000	0.0
7	0x00000000	0.0
8	0x00000000	0.0
9	0x00000000	0.0
10	0x00000000	0.0
11	0x00000000	0.0
12	0x00000000	0.0
13	0x00000000	0.0
14	0x00000000	0.0
15	0x00000000	0.0
16	0x00000000	0.0
17	0x00000000	0.0
18	0x00000000	0.0
19	0x00000000	0.0
20	0x00000000	0.0
21	0x00000004	6e-45
22	0x80000004	-6e-45
23	0x80000004	-6e-45
24	0x00000000	0.0
25	0x3c9f332a	0.019433577
26	0x3efe385b	0.4965237
27	0x3dbba0c1	0.09161521
28	0x00000000	0.0
29	0x00000000	0.0
30	0x00000000	0.0
31	0x00000000	0.0
32	0x00000000	0.0
33	0x3ba2f720	0.0049733073
34	0x3def1f3b	0.116758786
35	0x3cb65a7b	0.022259941
36	0x00000000	0.0
37	0x00000000	0.0
38	0x00000000	0.0
39	0x00000000	0.0
40	0x00000000	0.0
41	0xb9713df5	-0.00023006632
42	0x3d6025da	0.054723598
43	0x3ad739d9	0.0016420438
44	0x00000000	0.0
45	0x3c2faf1a	0.0107229
46	0x3f58d779	0.84703785
47	0x3e3c685a	0.18399182
48	0x00000000	0.0
49	0x00000000	0.0
50	0x00000000	0.0
51	0x00000000	0.0
52	0x00000000	0.0
53	0x3a8fce53	0.0010971524
54	0x3e46b7a6	0.19405994
55	0x3d8e0565	0.06934623
56	0x00000000	0.0
57	0x39d36014	0.0004031664
58	0x3bc0cdbd	0.005883901
59	0x3adca922	0.0016835073
60	0x00000000	0.0
61	0x3cba4eeb	0.02274271
62	0xbc1c047a	-0.009522552
63	0xbd1c98a7	-0.038231518
64	0x00000000	0.0
65	0xbc3527d6	-0.011056861
66	0xbe8dbbe1	-0.27682403
67	0xbd542591	-0.05179364
68	0x00000000	0.0
69	0x3cc2c31f	0.023774682
70	0x3f14b576	0.5808939
71	0x3de14ece	0.11001359
72	0x00000000	0.0
73	0x00000000	0.0
74	0x00000000	0.0
75	0x00000000	0.0
76	0x00000000	0.0
77	0x00000000	0.0
78	0x00000000	0.0
79	0x00000000	0.0
80	0x00000000	0.0
81	0x3bee2b39	0.007268336
82	0x3e303546	0.17207822
83	0x3d05a8f9	0.032631848
84	0x00000000	0.0
85	0xbc6c9fa1	-0.014442355
86	0xbee36b1a	-0.4441765
87	0xbdb31ad3	-0.08745351
88	0x00000000	0.0
89	0x00000000	0.0
90	0x00000000	0.0
91	0x00000000	0.0
92	0x00000000	0.0
93	0x3ba29280	0.004961312
94	0x3dea5100	0.11441231
95	0x3cb34d68	0.021887496
96	0x00000000	0.0
97	0xbc355e96	-0.011069914
98	0xbe949899	-0.29022673
99	0xbd59cb0b	-0.053172152
100	0x00000000	0.0
101	0x3c998057	0.018737955
102	0x3ea2d1b8	0.31800628
103	0x3d200b29	0.039073143
104	0x00000000	0.0
105	0x00000000	0.0
106	0x00000000	0.0
107	0x00000000	0.0
108	0x00000000	0.0
109	0x00000000	0.0
110	0x00000000	0.0
111	0x00000000	0.0
112	0x00000000	0.0
113	0x00000000	0.0
114	0x00000000	0.0
115	0x00000000	0.0
116	0x00000000	0.0
117	0xbb2fbf94	-0.002681707
118	0xbd9a3806	-0.07530217
119	0xbc5eb812	-0.0135936905
120	0x00000000	0.0
121	0xbc0d8a11	-0.008638875
122	0xbe5e9e1f	-0.21740006
123	0xbd263ad8	-0.04058346
124	0x00000000	0.0
125	0xba93440a	-0.0011235487
126	0xbd12ef35	-0.035872657
127	0xbbc2c609	-0.005944018
128	0x00000000	0.0
129	0x3d072712	0.032996245
130	0x3f53a211	0.8266917
131	0x3e1d3b37	0.1535462
132	0x00000000	0.0
133	0x3bab7ade	0.005233153
134	0x3e074037	0.1320809
135	0x3cd18cf3	0.025579905
136	0x00000000	0.0
137	0xbbf02751	-0.0073289056
138	0xbe3bd455	-0.18342717
139	0xbd0a6155	-0.03378423
140	0x00000000	0.0
141	0x3c585385	0.013203506
142	0x3ea796fd	0.32732382
143	0x3d7ccfcb	0.061721604
144	0x00000000	0.0
145	0x3c2802d1	0.010254578
146	0x3e84be06	0.25926226
147	0x3d462b82	0.048381336
148	0x00000000	0.0
149	0x00000000	0.0
150	0x00000000	0.0
151	0x00000000	0.0
152	0x00000000	0.0
153	0xbc2e0ec1	-0.010623635
154	0xbe8ed04a	-0.27893287
155	0xbd515f65	-0.051116366
156	0x00000000	0.0
157	0x00000004	6e-45
158	0x80000004	-6e-45
159	0x80000004	-6e-45
160	0x00000000	0.0
161	0xbc45353a	-0.012036616
162	0xbea48783	-0.32134637
163	0xbd62358a	-0.05522684
164	0x00000000	0.0
165	0x3c06db0b	0.008230935
166	0x3e5390b0	0.20660663
167	0x3d20121d	0.039079774
168	0x00000000	0.0
169	0x3cb3584c	0.02189269
170	0x3f09e911	0.53871256
171	0x3dd0a3e3	0.10187509
172	0x00000000	0.0
173	0x3ae61230	0.0017553028
174	0x3d385335	0.045001227
175	0x3c00f82b	0.007871668
176	0x00000000	0.0
177	0x00000000	0.0
178	0x00000000	0.0
179	0x00000000	0.0
180	0x00000000	0.0
181	0x00000000	0.0
182	0x00000000	0.0
183	0x00000000	0.0
184	0x00000000	0.0
185	0x00000000	0.0
186	0x00000000	0.0
187	0x00000000	0.0
188	0x00000000	0.0
189	0xbb9f51ca	-0.004862045
190	0xbdff8175	-0.12475864
191	0xbcbecc79	-0.02329086
192	0x00000000	0.0
193	0x3b64ed52	0.0034931493
194	0x3da4e2f7	0.080511026
195	0x3cb4453c	0.02200567
196	0x00000000	0.0
197	0x3befdcdb	0.007320029
198	0x3e362be0	0.17790174
199	0x3d07fc5c	0.033199653
200	0x00000000	0.0
201	0xbc4d215f	-0.012520163
202	0xbeb8edeb	-0.36119017
203	0xbda14f69	-0.078764744
204	0x00000000	0.0
205	0x00000000	0.0
206	0x00000000	0.0
207	0x00000000	0.0
208	0x00000000	0.0
209	0x3baacd11	0.005212434
210	0x3e03b2db	0.12861197
211	0x3cc6bf3b	0.024261108
212	0x00000000	0.0
213	0x3b9f7377	0.0048660594
214	0x3e0117d1	0.12606741
215	0x3cc4e1b0	0.024033397
216	0x00000000	0.0
217	0xbb4ca757	-0.0031227672
218	0xbdb21688	-0.08695704
219	0xbc85e333	-0.016343689
220	0x00000000	0.0
221	0x3bb41a96	0.0054963334
222	0x3e0fcb61	0.14042427
223	0x3cd26f5d	0.025687868
224	0x00000000	0.0
225	0xbd516d8c	-0.051129863
226	0xbf961ba3	-1.1727184
227	0xbea4b230	-0.32167196
228	0x00000000	0.0
229	0x00000000	0.0
230	0x00000000	0.0
231	0x00000000	0.0
232	0x00000000	0.0
233	0xbc04e68e	-0.008111609
234	0xbeb5623a	-0.35426503
235	0xbda0467e	-0.07825945
236	0x00000000	0.0
237	0x00000000	0.0
238	0x00000000	0.0
239	0x00000000	0.0
240	0x00000000	0.0
241	0x3d9fc0ce	0.078004465
242	0x3f6159fa	0.8802792
243	0x3da20eba	0.07912965
244	0x00000000	0.0
245	0xbc21450b	-0.009843121
246	0xbe7855db	-0.24251501
247	0xbd3b1765	-0.045676608
248	0x00000000	0.0
249	0x3d4ee6a1	0.050512914
250	0x3fa0cf7f	1.2563323
251	0x3e70415f	0.23462437
252	0x00000000	0.0
253	0x00000000	0.0
254	0x00000000	0.0
255	0x00000000	0.0

exp_avg_sq f4 [64, 4]
0	0x00000000	0.0
1	0x00000000	0.0
2	0x00000000	0.0
3	0x00000000	0.0
4	0x00000000	0.0
5	0x00000000	0.0
6	0x00000000	0.0
7	0x00000000	0.0
8	0x00000000	0.0
9	0x00000000	0.0
10	0x00000000	0.0
11	0x00000000	0.0
12	0x00000000	0.0
13	0x00000000	0.0
14	0x00000000	0.0
15	0x00000000	0.0
16	0x00000000	0.0
17	0x00000000	0.0
18	0x00000000	0.0
19	0x00000000	0.0
20	0x00000000	0.0
21	0x3048549c	7.2879813e-10
22	0x3694727f	4.424073e-06
23	0x36de0363	6.61651e-06
24	0x00000000	0.0
25	0x3f12d3fc	0.5735471
26	0x4258ae3c	54.17015
27	0x404448ff	3.0669553
28	0x00000000	0.0
29	0x00000000	0.0
30	0x00000000	0.0
31	0x00000000	0.0
32	0x00000000	0.0
33	0x3d0fdaae	0.03512066
34	0x405440bc	3.316451
35	0x3e465ec8	0.19372094
36	0x00000000	0.0
37	0x00000000	0.0
38	0x00000000	0.0
39	0x00000000	0.0
40	0x00000000	0.0
41	0x3c14d4f7	0.009083978
42	0x3f68b569	0.9090181
43	0x3d08c520	0.033391118
44	0x00000000	0.0
45	0x3fb82f6e	1.4389474
46	0x4312b69d	146.71333
47	0x4114ed1b	9.307887
48	0x00000000	0.0
49	0x00000000	0.0
50	0x00000000	0.0
51	0x00000000	0.0
52	0x00000000	0.0
53	0x3e5e0fa8	0.2168566
54	0x41a9913e	21.195919
55	0x3fb69dac	1.4266868
56	0x00000000	0.0
57	0x398273cc	0.00024881808
58	0x3cc26293	0.023728644
59	0x3ab65661	0.0013911241
60	0x00000000	0.0
61	0x3e423ded	0.18968935
62	0x4176eff7	15.433585
63	0x3fbec644	1.4904256
64	0x00000000	0.0
65	0x3e421301	0.18952562
66	0x418f4c3b	17.912222
67	0x3f834d29	1.0257922
68	0x00000000	0.0
69	0x3f50acf8	0.8151393
70	0x4299d909	76.9239
71	0x408e700f	4.451179
72	0x00000000	0.0
73	0x00000000	0.0
74	0x00000000	0.0
75	0x00000000	0.0
76	0x00000000	0.0
77	0x00000000	0.0
78	0x00000000	0.0
79	0x00000000	0.0
80	0x00000000	0.0
81	0x3d916c5f	0.07100748
82	0x40d636d3	6.6941924
83	0x3ec8f5bf	0.3924999
84	0x00000000	0.0
85	0x3ea57014	0.3231207
86	0x41f3d97e	30.481197
87	0x3fde09a4	1.7346692
88	0x00000000	0.0
89	0x00000000	0.0
90	0x00000000	0.0
91	0x00000000	0.0
92	0x00000000	0.0
93	0x3d0476af	0.032339748
94	0x4042f5b3	3.0462463
95	0x3e378ad2	0.1792405
96	0x00000000	0.0
97	0x3e427eca	0.18993679
98	0x418f9c8e	17.951443
99	0x3f82dc67	1.0223511
100	0x00000000	0.0
101	0x3d429cbd	0.04751276
102	0x40bafb6f	5.8431926
103	0x3e4d1536	0.20027623
104	0x00000000	0.0
105	0x00000000	0.0
106	0x00000000	0.0
107	0x00000000	0.0
108	0x00000000	0.0
109	0x00000000	0.0
110	0x00000000	0.0
111	0x00000000	0.0
112	0x00000000	0.0
113	0x00000000	0.0
114	0x00000000	0.0
115	0x00000000	0.0
116	0x00000000	0.0
117	0x3c502970	0.012705192
118	0x3f9a3f34	1.2050538
119	0x3d84f4bf	0.06491994
120	0x00000000	0.0
121	0x3ddf73e2	0.10910775
122	0x4124bd05	10.296147
123	0x3f18ea88	0.59732866
124	0x00000000	0.0
125	0x3b0a171c	0.0021070903
126	0x3e4cbb6d	0.19993372
127	0x3c2b9b5c	0.010474052
128	0x00000000	0.0
129	0x3fcc24e3	1.5948757
130	0x43168570	150.52124
131	0x410abd55	8.671224
132	0x00000000	0.0
133	0x3d278798	0.040900797
134	0x40774e93	3.8641708
135	0x3e5ff75d	0.21871705
136	0x00000000	0.0
137	0x3da7cfee	0.08193956
138	0x40f7bf74	7.7421207
139	0x3ee3e510	0.44510698
140	0x00000000	0.0
141	0x3e8633ff	0.26211545
142	0x41c620a5	24.76594
143	0x3fb6bb54	1.4275918
144	0x00000000	0.0
145	0x3e211343	0.15730004
146	0x416dbe70	14.858994
147	0x3f57dfa3	0.8432562
148	0x00000000	0.0
149	0x00000000	0.0
150	0x00000000	0.0
151	0x00000000	0.0
152	0x00000000	0.0
153	0x3e397036	0.18109211
154	0x41891791	17.136507
155	0x3f73879c	0.951288
156	0x00000000	0.0
157	0x32845f6f	1.541022e-08
158	0x38158f31	3.5657726e-05
159	0x3858aef8	5.1661365e-05
160	0x00000000	0.0
161	0x3e529c9d	0.20567556
162	0x419b26b8	19.393906
163	0x3f915e60	1.1356926
164	0x00000000	0.0
165	0x3dcf07d1	0.10108913
166	0x4118d2d7	9.551475
167	0x3f0be547	0.54646724
168	0x00000000	0.0
169	0x3f327684	0.6971209
170	0x42839a81	65.801765
171	0x40731463	3.7981193
172	0x00000000	0.0
173	0x3ba62ba0	0.0050711185
174	0x3ef5e0a8	0.48022962
175	0x3cdf99d3	0.027295029
176	0x00000000	0.0
177	0x00000000	0.0
178	0x00000000	0.0
179	0x00000000	0.0
180	0x00000000	0.0
181	0x00000000	0.0
182	0x00000000	0.0
183	0x00000000	0.0
184	0x00000000	0.0
185	0x00000000	0.0
186	0x00000000	0.0
187	0x00000000	0.0
188	0x00000000	0.0
189	0x3d0c7b5f	0.034297343
190	0x404f1f4f	3.236286
191	0x3e3ede95	0.18639596
192	0x00000000	0.0
193	0x3c6516dd	0.013982502
194	0x3fb74d4f	1.4320468
195	0x3dc541bc	0.096316785
196	0x00000000	0.0
197	0x3d966d1d	0.073450305
198	0x40dd4be1	6.9155126
199	0x3ed03d2b	0.40671667
200	0x00000000	0.0
201	0x3e6cd7f4	0.23129255
202	0x41ae63b5	21.798685
203	0x3f9ebdb5	1.2401644
204	0x00000000	0.0
205	0x00000000	0.0
206	0x00000000	0.0
207	0x00000000	0.0
208	0x00000000	0.0
209	0x3d1ce517	0.038304415
210	0x40675d9c	3.6150885
211	0x3e54310b	0.20721833
212	0x00000000	0.0
213	0x3d23134b	0.03981332
214	0x4071a5e6	3.7757506
215	0x3e53d78b	0.20687692
216	0x00000000	0.0
217	0x3c9608aa	0.018314678
218	0x3fde323f	1.7359084
219	0x3dc27025	0.09494046
220	0x00000000	0.0
221	0x3d420e62	0.047376998
222	0x408f8c92	4.4859095
223	0x3e801ea8	0.2502339
224	0x00000000	0.0
225	0x3ffe4f1f	1.9867896
226	0x434607b2	198.03006
227	0x416218d9	14.131066
228	0x00000000	0.0
229	0x00000000	0.0
230	0x00000000	0.0
231	0x00000000	0.0
232	0x00000000	0.0
233	0x3e53447a	0.2063159
234	0x41a31d56	20.389324
235	0x3fa7c1a0	1.3105965
236	0x00000000	0.0
237	0x00000000	0.0
238	0x00000000	0.0
239	0x00000000	0.0
240	0x00000000	0.0
241	0x3e7eb5ac	0.2487399
242	0x41cbda3d	25.481562
243	0x3f08b577	0.53401893
244	0x00000000	0.0
245	0x3e103cf3	0.1408575
246	0x4154b582	13.294313
247	0x3f46932d	0.7756832
248	0x00000000	0.0
249	0x406ec2d3	3.7306411
250	0x43ae6683	348.80087
251	0x41a1c9b9	20.223497
252	0x00000000	0.0
253	0x00000000	0.0
254	0x00000000	0.0
255	0x00000000	0.0

max_exp_avg_sq f4 [64, 4]
0	0x00000000	0.0
1	0x00000000	0.0
2	0x00000000	0.0
3	0x00000000	0.0
4	0x00000000	0.0
5	0x00000000	0.0
6	0x00000000	0.0
7	0x00000000	0.0
8	0x00000000	0.0
9	0x00000000	0.0
10	0x00000000	0.0
11	0x00000000	0.0
12	0x00000000	0.0
13	0x00000000	0.0
14	0x00000000	0.0
15	0x00000000	0.0
16	0x00000000	0.0
17	0x00000000	0.0
18	0x00000000	0.0
19	0x00000000	0.0
20	0x00000000	0.0
21	0x344c2cd1	1.9015285e-07
22	0x39705f16	0.00022923606
23	0x39b48f59	0.00034439078
24	0x00000000	0.0
25	0x40205778	2.5053387
26	0x42884e99	68.15351
27	0x40a506c9	5.1570783
28	0x00000000	0.0
29	0x00000000	0.0
30	0x00000000	0.0
31	0x00000000	0.0
32	0x00000000	0.0
33	0x3e78fcca	0.24315181
34	0x41999a0f	19.200224
35	0x3f106761	0.56407744
36	0x00000000	0.0
37	0x00000000	0.0
38	0x00000000	0.0
39	0x00000000	0.0
40	0x00000000	0.0
41	0x3f75d7e2	0.96032536
42	0x423eee8f	47.732967
43	0x3fe893e8	1.8170137
44	0x00000000	0.0
45	0x40183c37	2.3786752
46	0x4315549d	149.33052
47	0x41a76a01	20.92676
48	0x00000000	0.0
49	0x00000000	0.0
50	0x00000000	0.0
51	0x00000000	0.0
52	0x00000000	0.0
53	0x3e60ca0e	0.21952078
54	0x41ac2a11	21.52054
55	0x3fbc6020	1.4716835
56	0x00000000	0.0
57	0x3e0083d3	0.12550287
58	0x411dd1d1	9.863725
59	0x3ea711ca	0.3263076
60	0x00000000	0.0
61	0x3e430aef	0.1904714
62	0x4177ee30	15.495651
63	0x3fc29670	1.520216
64	0x00000000	0.0
65	0x3e44d556	0.19222006
66	0x4191cb68	18.22432
67	0x3f87dd13	1.0614341
68	0x00000000	0.0
69	0x3f739cbb	0.95161027
70	0x429c1782	78.04591
71	0x4092ffbf	4.593719
72	0x00000000	0.0
73	0x00000000	0.0
74	0x00000000	0.0
75	0x00000000	0.0
76	0x00000000	0.0
77	0x00000000	0.0
78	0x00000000	0.0
79	0x00000000	0.0
80	0x00000000	0.0
81	0x404b4d29	3.1765845
82	0x42ce299d	103.081276
83	0x40da04af	6.8130717
84	0x00000000	0.0
85	0x4061fab2	3.5309262
86	0x42e2d590	113.417114
87	0x40f1bcff	7.554321
88	0x00000000	0.0
89	0x00000000	0.0
90	0x00000000	0.0
91	0x00000000	0.0
92	0x00000000	0.0
93	0x3e0721bd	0.13196464
94	0x4116814d	9.406568
95	0x3e8c8460	0.27444744
96	0x00000000	0.0
97	0x3f860088	1.0468912
98	0x424f3f4e	51.81182
99	0x400c880e	2.195804
100	0x00000000	0.0
101	0x4234bbc3	45.18336
102	0x43ed8182	475.01178
103	0x42813c11	64.61732
104	0x00000000	0.0
105	0x00000000	0.0
106	0x00000000	0.0
107	0x00000000	0.0
108	0x00000000	0.0
109	0x00000000	0.0
110	0x00000000	0.0
111	0x00000000	0.0
112	0x00000000	0.0
113	0x00000000	0.0
114	0x00000000	0.0
115	0x00000000	0.0
116	0x00000000	0.0
117	0x3f771e9b	0.96531075
118	0x428e617f	71.19042
119	0x3fe26ba4	1.7689099
120	0x00000000	0.0
121	0x3e75d809	0.24008192
122	0x419387e3	18.44135
123	0x3f1e6198	0.61867666
124	0x00000000	0.0
125	0x3e13d776	0.1443766
126	0x41235e44	10.210514
127	0x3e816252	0.25270325
128	0x00000000	0.0
129	0x422d922b	43.392742
130	0x43c9a04e	403.25238
131	0x4287d32a	67.91243
132	0x00000000	0.0
133	0x3ea09fbe	0.31371874
134	0x41c8211e	25.01617
135	0x3f342b77	0.7037882
136	0x00000000	0.0
137	0x3f40217b	0.7505109
138	0x423a9a83	46.65089
139	0x3ffbb238	1.9663763
140	0x00000000	0.0
141	0x3f470914	0.7774823
142	0x42613042	56.297127
143	0x3ff78381	1.9337007
144	0x00000000	0.0
145	0x3e230e80	0.159235
146	0x41716eb8	15.089531
147	0x3f5eec99	0.8707977
148	0x00000000	0.0
149	0x00000000	0.0
150	0x00000000	0.0
151	0x00000000	0.0
152	0x00000000	0.0
153	0x3e7b11fa	0.24518576
154	0x419cb155	19.586588
155	0x3f7b9565	0.9827483
156	0x00000000	0.0
157	0x389616e3	7.15682e-05
158	0x3c8f2643	0.0174743
159	0x3c9ce9ac	0.019154392
160	0x00000000	0.0
161	0x3fef78af	1.8708705
162	0x428c6694	70.20035
163	0x40841f9b	4.128858
164	0x00000000	0.0
165	0x3dd1d004	0.10244754
166	0x411b5e6d	9.710553
167	0x3f10a4b1	0.565013
168	0x00000000	0.0
169	0x3f34a6f1	0.7056723
170	0x4285a46a	66.82112
171	0x407b13b7	3.9230783
172	0x00000000	0.0
173	0x3e029629	0.12752594
174	0x4110bc66	9.045996
175	0x3e3888ce	0.18020937
176	0x00000000	0.0
177	0x00000000	0.0
178	0x00000000	0.0
179	0x00000000	0.0
180	0x00000000	0.0
181	0x00000000	0.0
182	0x00000000	0.0
183	0x00000000	0.0
184	0x00000000	0.0
185	0x00000000	0.0
186	0x00000000	0.0
187	0x00000000	0.0
188	0x00000000	0.0
189	0x3e0c8e37	0.13726126
190	0x41259163	10.347995
191	0x3eba568f	0.36394164
192	0x00000000	0.0
193	0x3c661839	0.014043861
194	0x3fb8ca4a	1.4436734
195	0x3dca1aa1	0.0986836
196	0x00000000	0.0
197	0x4042a362	3.041222
198	0x42c9a8ed	100.82993
199	0x40c31a32	6.0969477
200	0x00000000	0.0
201	0x3f1c709d	0.61109334
202	0x421729e3	37.790905
203	0x3fc044a3	1.5020946
204	0x00000000	0.0
205	0x00000000	0.0
206	0x00000000	0.0
207	0x00000000	0.0
208	0x00000000	0.0
209	0x3f7b40d2	0.9814578
210	0x427e3282	63.549324
211	0x4001b348	2.0265675
212	0x00000000	0.0
213	0x3f49dff0	0.78857327
214	0x424b52ec	50.83098
215	0x3fcc90ac	1.598165
216	0x00000000	0.0
217	0x3f64cd37	0.89375633
218	0x424add53	50.716137
219	0x4000be93	2.0116317
220	0x00000000	0.0
221	0x3fff99f7	1.9968861
222	0x42bda226	94.816696
223	0x409af8e8	4.842884
224	0x00000000	0.0
225	0x4000bbff	2.0114744
226	0x4349bc53	201.73564
227	0x417dcfa8	15.863197
228	0x00000000	0.0
229	0x00000000	0.0
230	0x00000000	0.0
231	0x00000000	0.0
232	0x00000000	0.0
233	0x3e55e966	0.20889816
234	0x41a59b75	20.700907
235	0x3facfbe3	1.351437
236	0x00000000	0.0
237	0x00000000	0.0
238	0x00000000	0.0
239	0x00000000	0.0
240	0x00000000	0.0
241	0x3ea36210	0.31910753
242	0x41d61713	26.761267
243	0x3f1aa0f0	0.6040182
244	0x00000000	0.0
245	0x3edc9982	0.43085867
246	0x42020e70	32.5141
247	0x3f5c846a	0.8613955
248	0x00000000	0.0
249	0x41f9237e	31.14233
250	0x43b02024	352.2511
251	0x425c00f0	55.000916
252	0x00000000	0.0
253	0x00000000	0.0
254	0x00000000	0.0
255	0x00000000	0.0

exp_avg f4 [64]
0	0x00000000	0.0
1	0x3af7d520	0.0018908121
2	0x3af29175	0.0018506484
3	0x3aca82a0	0.0015450306
4	0x3ae7bb3c	0.0017679702
5	0x3aff3404	0.0019470458
6	0xbcb96be8	-0.022634462
7	0x3a9b696d	0.0011856981
8	0xbbe27e8e	-0.006912059
9	0x3b1372d0	0.0022498854
10	0xbb71fec8	-0.0036925543
11	0xbd2c1448	-0.04201153
12	0x00000000	0.0
13	0xbc9c21af	-0.01905903
14	0xbacd086c	-0.0015642769
15	0x3c1de49f	0.009637027
16	0x3c7e7a78	0.0155321285
17	0xbcf31cbf	-0.029676793
18	0x00000000	0.0
19	0x00000000	0.0
20	0xbc0b8013	-0.008514422
21	0xb7587945	-1.29028385e-05
22	0x3ae93fe8	0.0017795535
23	0xbbcbeb75	-0.006223137
24	0x3c4b9106	0.012424713
25	0xbbf7eefd	-0.0075663314
26	0x00000004	6e-45
27	0x00000000	0.0
28	0x00000000	0.0
29	0x3b6a4308	0.003574552
30	0x3c1fad6a	0.009745935
31	0x39663df3	0.00021957587
32	0xbd1d8c04	-0.038463607
33	0xbbcedc00	-0.006312847
34	0x3c20bba9	0.009810367
35	0xbc8884c4	-0.01666487
36	0xbc4e0b2c	-0.012575906
37	0x00000000	0.0
38	0x3c5f8014	0.013641376
39	0x3b31124d	0.0027018965
40	0x3bf90459	0.0075993952
41	0xbc23fc45	-0.010008876
42	0xbcddb67e	-0.027064558
43	0xbb2edb3d	-0.002668097
44	0x00000000	0.0
45	0x00000000	0.0
46	0x3ae2fe0d	0.0017318145
47	0x3ba00006	0.0048828153
48	0xbba437d4	-0.005011538
49	0xbbfe0285	-0.007751765
50	0x3b9297cb	0.0044736615
51	0x3afb4c68	0.0019172551
52	0xbbc84a2c	-0.0061123576
53	0xbbf7882a	-0.007554074
54	0x3b98f066	0.0046673296
55	0xbbf3b922	-0.007437841
56	0xbcb1fd01	-0.021727087
57	0x00000000	0.0
58	0x3b2da9a0	0.002649881
59	0x00000000	0.0
60	0xbd328c01	-0.04359055
61	0x3c44da19	0.012014889
62	0xbd7f4ce0	-0.062329173
63	0x3ad22f31	0.0016035793

exp_avg_sq f4 [64]
0	0x00000000	0.0
1	0x37dfe544	2.6690432e-05
2	0x37d60e85	2.551755e-05
3	0x3793f512	1.7637885e-05
4	0x37c33fa6	2.327545e-05
5	0x37ecbc2a	2.8221013e-05
6	0x3c2a382d	0.01038937
7	0x372d33cc	1.0323663e-05
8	0x3a34073d	0.00068675337
9	0x381e4b33	3.774017e-05
10	0x39384fce	0.00017577337
11	0x3cfe2438	0.03102313
12	0x00000000	0.0
13	0x3b9e8325	0.004837411
14	0x3732ac36	1.0649723e-05
15	0x3b7718dc	0.0037704026
16	0x3b5a7217	0.0033332163
17	0x3c791a6b	0.015204052
18	0x00000000	0.0
19	0x00000000	0.0
20	0x3aae1790	0.0013282169
21	0x3b9bde69	0.004756738
22	0x37c569ca	2.3533492e-05
23	0x3a2345ae	0.00062283396
24	0x3b50180b	0.0031752612
25	0x3a9c6e74	0.0011934773
26	0x2a4d6ad8	1.8244726e-13
27	0x00000000	0.0
28	0x00000000	0.0
29	0x395f2668	0.00021281245
30	0x3af2103e	0.0018467975
31	0x37fcd109	3.013808e-05
32	0x3cee97a9	0.029125052
33	0x3a447189	0.00074937247
34	0x3aba79cb	0.0014226971
35	0x3b9fcf9e	0.004877045
36	0x3b3be113	0.002866809
37	0x00000000	0.0
38	0x3b49b3fa	0.003077744
39	0x38668a9c	5.4965363e-05
40	0x3b575d7e	0.0032862122
41	0x3af17457	0.0018421513
42	0x3c528873	0.012849915
43	0x38bf99b6	9.1362206e-05
44	0x00000000	0.0
45	0x00000000	0.0
46	0x37ba1915	2.2184608e-05
47	0x3a143857	0.0005654147
48	0x39b1ad2f	0.00033889103
49	0x3ab1b378	0.0013557514
50	0x3b67b737	0.0035357007
51	0x37e5470e	2.7332015e-05
52	0x3a37fd47	0.0007018637
53	0x3a43f56c	0.00074752304
54	0x39a5e9db	0.00031645488
55	0x3a6aa8be	0.0008951536
56	0x3d09ce26	0.033643864
57	0x00000000	0.0
58	0x3b65be54	0.0035056071
59	0x00000000	0.0
60	0x3bd47c64	0.006484555
61	0x3b1f621d	0.0024319955
62	0x3d8d096d	0.068865635
63	0x379f687a	1.9002928e-05

max_exp_avg_sq f4 [64]
0	0x00000000	0.0
1	0x3c167f6d	0.009185654
2	0x3c06ce08	0.008227833
3	0x3cbfcb3c	0.02341234
4	0x3ccca5d1	0.024981411
5	0x3c8dffc6	0.017333876
6	0x3db6a879	0.08918852
7	0x3ce0114f	0.027352003
8	0x3ca12fc4	0.019676097
9	0x3ce42d9c	0.02785378
10	0x3d2c0461	0.041996364
11	0x3f0031af	0.5007581
12	0x00000000	0.0
13	0x3cbb227a	0.022843588
14	0x3bab74ca	0.005232428
15	0x3b7829db	0.0037866745
16	0x3c09f1e4	0.008419488
17	0x3d17889e	0.036995523
18	0x00000000	0.0
19	0x00000000	0.0
20	0x3e14005d	0.14453264
21	0x3deaf5b3	0.11472645
22	0x3c54f78c	0.012998473
23	0x3b42ef0b	0.0029744531
24	0x3d1f5921	0.03890336
25	0x3fe43e4c	1.7831511
26	0x37b9250a	2.2070966e-05
27	0x00000000	0.0
28	0x00000000	0.0
29	0x3cb89c62	0.022535507
30	0x3c1ebd2a	0.009688655
31	0x3b884b5d	0.0041593746
32	0x3fda8d50	1.7074375
33	0x3c5a25c1	0.013314665
34	0x3d0525ec	0.03250687
35	0x3d4025d5	0.04691108
36	0x3c45b5b5	0.012067248
37	0x00000000	0.0
38	0x3c96601c	0.018356375
39	0x3c515df9	0.0127787525
40	0x3d742745	0.059607763
41	0x3bd950f7	0.006631966
42	0x3ceb5cb2	0.028730724
43	0x3b83a0ce	0.004016972
44	0x00000000	0.0
45	0x00000000	0.0
46	0x3cbf4461	0.023348035
47	0x3c11a8bb	0.008890326
48	0x3ab5ed18	0.0013879864
49	0x3e01550c	0.12630099
50	0x3cfccf40	0.030860543
51	0x3c85abdf	0.016317306
52	0x3d138836	0.036018573
53	0x3d094d32	0.033520885
54	0x3d8d9534	0.06913224
55	0x3df3cf62	0.119047895
56	0x3d0fa328	0.035067707
57	0x00000000	0.0
58	0x3bb46a98	0.005505871
59	0x00000000	0.0
60	0x3d261339	0.040545676
61	0x3c3b7b47	0.011442966
62	0x3fa1c2fb	1.2637628
63	0x3d157c54	0.03649552

exp_avg f4 [64, 64]
0	0x00000000	0.0
1	0x00000000	0.0
2	0x00000000	0.0
3	0x00000000	0.0
4	0x00000000	0.0
5	0x80000004	-6e-45
6	0x3b9af51a	0.0047289254
7	0x00000000	0.0
8	0x3c29347f	0.010327457
9	0x00000000	0.0
10	0x3b72f00f	0.0037069356
11	0x3a49a4ec	0.0007692117
12	0x00000000	0.0
13	0x39c556fd	0.0003763958
14	0x3befd5cc	0.0073191877
15	0x3a81842c	0.0009881309
16	0x3c64f3ac	0.0139741115
17	0x3a1c4dac	0.0005962502
18	0x00000000	0.0
19	0x00000000	0.0
20	0x3b4ef3ee	0.00315785
21	0x3b8a2366	0.0042156456
22	0x00000000	0.0
23	0x3c2d399d	0.010572818
24	0x3c3fc70d	0.011705172
25	0x3a6856ae	0.0008863014
26	0x00000000	0.0
27	0x00000000	0.0
28	0x00000000	0.0
29	0x3c6a9f3a	0.014320189
30	0x3c2dd8ae	0.0106107425
31	0x3c0e6d16	0.008693
32	0xba2f6d3e	-0.00066919986
33	0x3c87c5b6	0.016573768
34	0x3c1ec9bb	0.009691651
35	0x3c106c13	0.008814829
36	0x3b4ebe91	0.0031546692
37	0x00000000	0.0
38	0x3c343d46	0.011000937
39	0x80000004	-6e-45
40	0x3c01c507	0.00792051
41	0x3c2d5158	0.010578476
42	0x3b13ac6f	0.0022533198
43	0x3bd23a2d	0.0064156265
44	0x00000000	0.0
45	0x00000000	0.0
46	0x00000000	0.0
47	0x3c2e65e2	0.010644408
48	0x3a318d2e	0.00067730516
49	0x3b4578dc	0.0030131852
50	0x3b989d84	0.004657449
51	0x00000000	0.0
52	0x3bd196d1	0.0063961525
53	0x3bf6f6a6	0.007536727
54	0x3c34e3d4	0.011040647
55	0x3c27ab5d	0.010233727
56	0x3a8ba424	0.0010653776
57	0x00000000	0.0
58	0x3b81d270	0.0039618537
59	0x00000000	0.0
60	0xba23d6c5	-0.00062499597
61	0x3c834676	0.01602481
62	0xba3c9e0b	-0.0007195181
63	0x00000000	0.0
64	0x00000000	0.0
65	0x00000000	0.0
66	0x00000000	0.0
67	0x00000000	0.0
68	0x00000000	0.0
69	0x80000004	-6e-45
70	0x3b8a0068	0.004211474
71	0x00000000	0.0
72	0x3c16afb2	0.009197162
73	0x00000000	0.0
74	0x3b585432	0.0033009169
75	0x3a3396fd	0.0006850807
76	0x00000000	0.0
77	0x39afdab1	0.0003354154
78	0x3bd5965b	0.006518168
79	0x3a66adfa	0.0008799728
80	0x3c4be26c	0.01244412
81	0x3a0b4403	0.0005312564
82	0x00000000	0.0
83	0x00000000	0.0
84	0x3b385060	0.002812408
85	0x3b760834	0.003754151
86	0x00000000	0.0
87	0x3c1a43a8	0.009415545
88	0x3c2ac7c5	0.010423605
89	0x3a4ee2c6	0.0007892068
90	0x00000000	0.0
91	0x00000000	0.0
92	0x00000000	0.0
93	0x3c50f024	0.0127525665
94	0x3c1ad0b0	0.009449169
95	0x3bfdab02	0.007741333
96	0xba1c27db	-0.00059568667
97	0x3c71d30b	0.014759789
98	0x3c0d66ae	0.008630438
99	0x3c009e59	0.007850253
100	0x3b3821b4	0.002809626
101	0x00000000	0.0
102	0x3c20809f	0.009796291
103	0x80000004	-6e-45
104	0x3be7203e	0.007053404
105	0x3c1a5970	0.009420738
106	0x3b038500	0.0020068288
107	0x3bbb3739	0.00571337
108	0x00000000	0.0
109	0x00000000	0.0
110	0x00000000	0.0
111	0x3c1b4e35	0.009479095
112	0x3a1e2150	0.00060321856
113	0x3b2fdbad	0.0026833818
114	0x3b87e81b	0.004147542
115	0x00000000	0.0
116	0x3bbaa74f	0.0056962143
117	0x3bdbee99	0.0067117927
118	0x3c211735	0.009832193
119	0x3c1551f3	0.0091137765
120	0x3a78b336	0.0009487154
121	0x00000000	0.0
122	0x3b67359d	0.0035279759
123	0x00000000	0.0
124	0xba11e13a	-0.00055648724
125	0x3c69ce6b	0.014270405
126	0xba27edf9	-0.0006406005
127	0x00000000	0.0
128	0x00000000	0.0
129	0x397db8ab	0.00024196754
130	0x392b2074	0.0001631992
131	0x3881eb37	6.1950115e-05
132	0x395a1b55	0.00020800282
133	0x39633411	0.00021667803
134	0x3c94120b	0.01807501
135	0x38a520fa	7.8739555e-05
136	0x3d2026c3	0.039099466
137	0x3949da4f	0.0001925018
138	0x3c670f6a	0.014102796
139	0x3b4d6e00	0.0031346083
140	0x00000000	0.0
141	0x3ae2ea4b	0.0017312256
142	0x3ce168b3	0.027515745
143	0x3b73627d	0.003713756
144	0x3d5724a7	0.05252519
145	0x3b2b0458	0.0026095118
146	0x00000000	0.0
147	0x00000000	0.0
148	0x3c45013e	0.012024222
149	0x3c81c8ea	0.015842874
150	0x390ecc4a	0.00013618279
151	0x3d23efff	0.0400238
152	0x3d343406	0.043994926
153	0x3b617704	0.0034403214
154	0x00000004	6e-45
155	0x00000000	0.0
156	0x00000000	0.0
157	0x3d5c6ea0	0.053816438
158	0x3d235745	0.03987815
159	0x3d05d1d1	0.0326708
160	0xbb140cd0	-0.0022590645
161	0x3d7f6d14	0.062359884
162	0x3d15387d	0.036430825
163	0x3d091055	0.03346284
164	0x3c4707bd	0.012147841
165	0x00000000	0.0
166	0x3d296308	0.04135421
167	0x39346289	0.00017202845
168	0x3cf3dd39	0.029768573
169	0x3d24801c	0.040161237
170	0x3c1114f7	0.008855096
171	0x3cc57dc6	0.024107825
172	0x00000000	0.0
173	0x00000000	0.0
174	0x3870a3c7	5.737299e-05
175	0x3d23dce1	0.04000557
176	0x3b302336	0.0026876456
177	0x3c3ae95e	0.011408178
178	0x3c8f6576	0.017504435
179	0x3927ef92	0.00016015608
180	0x3cc6b29d	0.024255091
181	0x3ce8b89a	0.028408337
182	0x3d29ee00	0.04148674
183	0x3d1e5f20	0.038664937
184	0x3b834033	0.004005456
185	0x00000000	0.0
186	0x3c740f7f	0.014896273
187	0x00000000	0.0
188	0xbb034aa4	-0.0020033503
189	0x3d76b352	0.060229607
190	0xbb249ca1	-0.0025117772
191	0x38e91219	0.00011113677
192	0x00000000	0.0
193	0x397668b3	0.00023499392
194	0x392631df	0.00015849572
195	0x387c5958	6.016469e-05
196	0x3953d220	0.00020200806
197	0x395ca7c0	0.00021043327
198	0x3c8fc894	0.017551698
199	0x38a05ea7	7.647025e-05
200	0x3d1b84b0	0.037968338
201	0x39440907	0.0001869538
202	0x3c60639a	0.013695622
203	0x3b477acc	0.0030438183
204	0x00000000	0.0
205	0x3adc4918	0.0016806452
206	0x3cdae310	0.0267196
207	0x3b6c595e	0.003606401
208	0x3d50ecec	0.051007196
209	0x3b260606	0.002533318
210	0x00000000	0.0
211	0x00000000	0.0
212	0x3c3f4c64	0.011675928
213	0x3c7c1091	0.015384809
214	0x390aaeb9	0.00013225795
215	0x3d1f3215	0.03886612
216	0x3d2efeb5	0.042723376
217	0x3b5af58b	0.0033410515
218	0x00000004	6e-45
219	0x00000000	0.0
220	0x00000000	0.0
221	0x3d560f05	0.052260417
222	0x3d1e9e67	0.038725283
223	0x3d01f36b	0.031726282
224	0xbb0fd07d	-0.0021944337
225	0x3d78096b	0.060555857
226	0x3d10e8b7	0.035378184
227	0x3d0518be	0.0324943
228	0x3c41435c	0.011795845
229	0x00000000	0.0
230	0x3d247e3c	0.04015945
231	0x392f2fa6	0.00016707051
232	0x3cecd094	0.028908052
233	0x3d1fbdac	0.038999245
234	0x3c0ce105	0.008598571
235	0x3cbfc781	0.02341056
236	0x00000000	0.0
237	0x00000000	0.0
238	0x3869b452	5.5719465e-05
239	0x3d1f2033	0.038849067
240	0x3b2b09ba	0.0026098327
241	0x3c358132	0.011078166
242	0x3c8b404f	0.016998438
243	0x39231887	0.00015554029
244	0x3cc0f284	0.02355314
245	0x3ce1fd5e	0.027586635
246	0x3d2503b8	0.04028675
247	0x3d19c9f5	0.037546117
248	0x3b7eeba9	0.0038897789
249	0x00000000	0.0
250	0x3c6d036c	0.014466148
251	0x00000000	0.0
252	0xbaff062c	-0.0019456795
253	0x3d6f91d9	0.0584887
254	0xbb1fe117	-0.0024395639
255	0x38e25a7f	0.00010793376
